…
{"AUGMENT": "", "AUTO_RESUME": true, "BATCH_SIZE": 64, "CUTMIX_ALPHA": 0.0, "DATASET": "imagenet", "DISTILL": false, "IM_SIZE": 456, "LABEL_SMOOTHING": 0.0, "MIXED_PRECISION": false, "MIXUP_ALPHA": 0.0, "PCA_STD": 0.1, "SPLIT": "train", "TEACHER": "", "TEACHER_NAME": "", "WEIGHTS": ""}, "VERBOSE": true, "VIT": {"CLASSIFIER_TYPE": "token", "C_STEM_DIMS": [], "C_STEM_KERNELS": [], "C_STEM_STRIDES": [], "HIDDEN_DIM": 768, "MLP_DIM": 3072, "NUM_HEADS": 12, "NUM_LAYERS": 12, "PATCH_SIZE": 16, "STEM_TYPE": "patchify"}, "_type": "cfg"}
[trainer.py: 155]: Model:
AnyNet(
  (stem): SimpleStem(
    (conv): Conv2d(3, 48, kernel_size=(3, 3), stride=(2, 2), padding=(1, 1), bias=False)
    (bn): BatchNorm2d(48, eps=1e-05, momentum=0.1, affine=True, track_running_stats=True)
    (af): SiLU()
  )
  (s1): BranchStage(
    (branches): ModuleList(
      (0): Sequential(
        (0): Sequential(
          (0): Conv2d(48, 48, kernel_size=(1, 1), stride=(1, 1), bias=False)
          (1): BatchNorm2d(48, eps=1e-05, momentum=0.1, affine=True, track_running_stats=True)
          (2): AnyStage(
            (b1): MBConv(
              (dwise): Conv2d(48, 48, kernel_size=(3, 3), stride=(1, 1), padding=(1, 1), groups=48, bias=False)
              (dwise_bn): BatchNorm2d(48, eps=1e-05, momentum=0.1, affine=True, track_running_stats=True)
              (dwise_af): ReLU(inplace=True)
              (se): SE(
                (avg_pool): AdaptiveAvgPool2d(output_size=(1, 1))
                (f_ex): Sequential(
                  (0): Conv2d(48, 12, kernel_size=(1, 1), stride=(1, 1))
                  (1): SiLU()
                  (2): Conv2d(12, 48, kernel_size=(1, 1), stride=(1, 1))
                  (3): Sigmoid()
                )
              )
              (lin_proj): Conv2d(48, 24, kernel_size=(1, 1), stride=(1, 1), bias=False)
              (lin_proj_bn): BatchNorm2d(24, eps=1e-05, momentum=0.1, affine=True, track_running_stats=True)
            )
            (b2): MBConv(
              (dwise): Conv2d(24, 24, kernel_size=(3, 3), stride=(1, 1), padding=(1, 1), groups=24, bias=False)
              (dwise_bn): BatchNorm2d(24, eps=1e-05, momentum=0.1, affine=True, track_running_stats=True)
              (dwise_af): ReLU(inplace=True)
              (se): SE(
                (avg_pool): AdaptiveAvgPool2d(output_size=(1, 1))
                (f_ex): Sequential(
                  (0): Conv2d(24, 6, kernel_size=(1, 1), stride=(1, 1))
                  (1): SiLU()
                  (2): Conv2d(6, 24, kernel_size=(1, 1), stride=(1, 1))
                  (3): Sigmoid()
                )
              )
              (lin_proj): Conv2d(24, 24, kernel_size=(1, 1), stride=(1, 1), bias=False)
              (lin_proj_bn): BatchNorm2d(24, eps=1e-05, momentum=0.1, affine=True, track_running_stats=True)
            )
            (b3): MBConv(
              (dwise): Conv2d(24, 24, kernel_size=(3, 3), stride=(1, 1), padding=(1, 1), groups=24, bias=False)
              (dwise_bn): BatchNorm2d(24, eps=1e-05, momentum=0.1, affine=True, track_running_stats=True)
              (dwise_af): ReLU(inplace=True)
              (se): SE(
                (avg_pool): AdaptiveAvgPool2d(output_size=(1, 1))
                (f_ex): Sequential(
                  (0): Conv2d(24, 6, kernel_size=(1, 1), stride=(1, 1))
                  (1): SiLU()
                  (2): Conv2d(6, 24, kernel_size=(1, 1), stride=(1, 1))
                  (3): Sigmoid()
                )
              )
              (lin_proj): Conv2d(24, 24, kernel_size=(1, 1), stride=(1, 1), bias=False)
              (lin_proj_bn): BatchNorm2d(24, eps=1e-05, momentum=0.1, affine=True, track_running_stats=True)
            )
          )
        )
        (1): Conv2d(24, 12, kernel_size=(1, 1), stride=(1, 1), bias=False)
        (2): BatchNorm2d(12, eps=1e-05, momentum=0.1, affine=True, track_running_stats=True)
      )
      (1): Sequential(
        (0): Sequential(
          (0): Conv2d(48, 48, kernel_size=(1, 1), stride=(1, 1), bias=False)
          (1): BatchNorm2d(48, eps=1e-05, momentum=0.1, affine=True, track_running_stats=True)
          (2): AnyStage(
            (b1): MBConv(
              (dwise): Conv2d(48, 48, kernel_size=(3, 3), stride=(1, 1), padding=(1, 1), groups=48, bias=False)
              (dwise_bn): BatchNorm2d(48, eps=1e-05, momentum=0.1, affine=True, track_running_stats=True)
              (dwise_af): SiLU()
              (se): SE(
                (avg_pool): AdaptiveAvgPool2d(output_size=(1, 1))
                (f_ex): Sequential(
                  (0): Conv2d(48, 12, kernel_size=(1, 1), stride=(1, 1))
                  (1): SiLU()
                  (2): Conv2d(12, 48, kernel_size=(1, 1), stride=(1, 1))
                  (3): Sigmoid()
                )
              )
              (lin_proj): Conv2d(48, 24, kernel_size=(1, 1), stride=(1, 1), bias=False)
              (lin_proj_bn): BatchNorm2d(24, eps=1e-05, momentum=0.1, affine=True, track_running_stats=True)
            )
            (b2): MBConv(
              (dwise): Conv2d(24, 24, kernel_size=(3, 3), stride=(1, 1), padding=(1, 1), groups=24, bias=False)
              (dwise_bn): BatchNorm2d(24, eps=1e-05, momentum=0.1, affine=True, track_running_stats=True)
              (dwise_af): SiLU()
              (se): SE(
                (avg_pool): AdaptiveAvgPool2d(output_size=(1, 1))
                (f_ex): Sequential(
                  (0): Conv2d(24, 6, kernel_size=(1, 1), stride=(1, 1))
                  (1): SiLU()
                  (2): Conv2d(6, 24, kernel_size=(1, 1), stride=(1, 1))
                  (3): Sigmoid()
                )
              )
              (lin_proj): Conv2d(24, 24, kernel_size=(1, 1), stride=(1, 1), bias=False)
              (lin_proj_bn): BatchNorm2d(24, eps=1e-05, momentum=0.1, affine=True, track_running_stats=True)
            )
          )
        )
        (1): Conv2d(24, 12, kernel_size=(1, 1), stride=(1, 1), bias=False)
        (2): BatchNorm2d(12, eps=1e-05, momentum=0.1, affine=True, track_running_stats=True)
      )
    )
  )
  (s2): BranchStage(
    (branches): ModuleList(
      (0): Sequential(
        (0): Sequential(
          (0): Conv2d(24, 24, kernel_size=(1, 1), stride=(1, 1), bias=False)
          (1): BatchNorm2d(24, eps=1e-05, momentum=0.1, affine=True, track_running_stats=True)
          (2): AnyStage(
            (b1): MBConv(
              (exp): Conv2d(24, 144, kernel_size=(1, 1), stride=(1, 1), bias=False)
              (exp_bn): BatchNorm2d(144, eps=1e-05, momentum=0.1, affine=True, track_running_stats=True)
              (exp_af): ReLU(inplace=True)
              (dwise): Conv2d(144, 144, kernel_size=(3, 3), stride=(2, 2), padding=(1, 1), groups=144, bias=False)
              (dwise_bn): BatchNorm2d(144, eps=1e-05, momentum=0.1, affine=True, track_running_stats=True)
              (dwise_af): ReLU(inplace=True)
              (se): SE(
                (avg_pool): AdaptiveAvgPool2d(output_size=(1, 1))
                (f_ex): Sequential(
                  (0): Conv2d(144, 6, kernel_size=(1, 1), stride=(1, 1))
                  (1): SiLU()
                  (2): Conv2d(6, 144, kernel_size=(1, 1), stride=(1, 1))
                  (3): Sigmoid()
                )
              )
              (lin_proj): Conv2d(144, 32, kernel_size=(1, 1), stride=(1, 1), bias=False)
              (lin_proj_bn): BatchNorm2d(32, eps=1e-05, momentum=0.1, affine=True, track_running_stats=True)
            )
            (b2): MBConv(
              (exp): Conv2d(32, 192, kernel_size=(1, 1), stride=(1, 1), bias=False)
              (exp_bn): BatchNorm2d(192, eps=1e-05, momentum=0.1, affine=True, track_running_stats=True)
              (exp_af): ReLU(inplace=True)
              (dwise): Conv2d(192, 192, kernel_size=(3, 3), stride=(1, 1), padding=(1, 1), groups=192, bias=False)
              (dwise_bn): BatchNorm2d(192, eps=1e-05, momentum=0.1, affine=True, track_running_stats=True)
              (dwise_af): ReLU(inplace=True)
              (se): SE(
                (avg_pool): AdaptiveAvgPool2d(output_size=(1, 1))
                (f_ex): Sequential(
                  (0): Conv2d(192, 8, kernel_size=(1, 1), stride=(1, 1))
                  (1): SiLU()
                  (2): Conv2d(8, 192, kernel_size=(1, 1), stride=(1, 1))
                  (3): Sigmoid()
                )
              )
              (lin_proj): Conv2d(192, 32, kernel_size=(1, 1), stride=(1, 1), bias=False)
              (lin_proj_bn): BatchNorm2d(32, eps=1e-05, momentum=0.1, affine=True, track_running_stats=True)
            )
            (b3): MBConv(
              (exp): Conv2d(32, 192, kernel_size=(1, 1), stride=(1, 1), bias=False)
              (exp_bn): BatchNorm2d(192, eps=1e-05, momentum=0.1, affine=True, track_running_stats=True)
              (exp_af): ReLU(inplace=True)
              (dwise): Conv2d(192, 192, kernel_size=(3, 3), stride=(1, 1), padding=(1, 1), groups=192, bias=False)
              (dwise_bn): BatchNorm2d(192, eps=1e-05, momentum=0.1, affine=True, track_running_stats=True)
              (dwise_af): ReLU(inplace=True)
              (se): SE(
                (avg_pool): AdaptiveAvgPool2d(output_size=(1, 1))
                (f_ex): Sequential(
                  (0): Conv2d(192, 8, kernel_size=(1, 1), stride=(1, 1))
                  (1): SiLU()
                  (2): Conv2d(8, 192, kernel_size=(1, 1), stride=(1, 1))
                  (3): Sigmoid()
                )
              )
              (lin_proj): Conv2d(192, 32, kernel_size=(1, 1), stride=(1, 1), bias=False)
              (lin_proj_bn): BatchNorm2d(32, eps=1e-05, momentum=0.1, affine=True, track_running_stats=True)
            )
            (b4): MBConv(
              (exp): Conv2d(32, 192, kernel_size=(1, 1), stride=(1, 1), bias=False)
              (exp_bn): BatchNorm2d(192, eps=1e-05, momentum=0.1, affine=True, track_running_stats=True)
              (exp_af): ReLU(inplace=True)
              (dwise): Conv2d(192, 192, kernel_size=(3, 3), stride=(1, 1), padding=(1, 1), groups=192, bias=False)
              (dwise_bn): BatchNorm2d(192, eps=1e-05, momentum=0.1, affine=True, track_running_stats=True)
              (dwise_af): ReLU(inplace=True)
              (se): SE(
                (avg_pool): AdaptiveAvgPool2d(output_size=(1, 1))
                (f_ex): Sequential(
                  (0): Conv2d(192, 8, kernel_size=(1, 1), stride=(1, 1))
                  (1): SiLU()
                  (2): Conv2d(8, 192, kernel_size=(1, 1), stride=(1, 1))
                  (3): Sigmoid()
                )
              )
              (lin_proj): Conv2d(192, 32, kernel_size=(1, 1), stride=(1, 1), bias=False)
              (lin_proj_bn): BatchNorm2d(32, eps=1e-05, momentum=0.1, affine=True, track_running_stats=True)
            )
          )
        )
        (1): Conv2d(32, 20, kernel_size=(1, 1), stride=(1, 1), bias=False)
        (2): BatchNorm2d(20, eps=1e-05, momentum=0.1, affine=True, track_running_stats=True)
      )
      (1): Sequential(
        (0): Sequential(
          (0): Conv2d(24, 24, kernel_size=(1, 1), stride=(1, 1), bias=False)
          (1): BatchNorm2d(24, eps=1e-05, momentum=0.1, affine=True, track_running_stats=True)
          (2): AnyStage(
            (b1): MBConv(
              (exp): Conv2d(24, 144, kernel_size=(1, 1), stride=(1, 1), bias=False)
              (exp_bn): BatchNorm2d(144, eps=1e-05, momentum=0.1, affine=True, track_running_stats=True)
              (exp_af): SiLU()
              (dwise): Conv2d(144, 144, kernel_size=(3, 3), stride=(2, 2), padding=(1, 1), groups=144, bias=False)
              (dwise_bn): BatchNorm2d(144, eps=1e-05, momentum=0.1, affine=True, track_running_stats=True)
              (dwise_af): SiLU()
              (se): SE(
                (avg_pool): AdaptiveAvgPool2d(output_size=(1, 1))
                (f_ex): Sequential(
                  (0): Conv2d(144, 6, kernel_size=(1, 1), stride=(1, 1))
                  (1): SiLU()
                  (2): Conv2d(6, 144, kernel_size=(1, 1), stride=(1, 1))
                  (3): Sigmoid()
                )
              )
              (lin_proj): Conv2d(144, 32, kernel_size=(1, 1), stride=(1, 1), bias=False)
              (lin_proj_bn): BatchNorm2d(32, eps=1e-05, momentum=0.1, affine=True, track_running_stats=True)
            )
            (b2): MBConv(
              (exp): Conv2d(32, 192, kernel_size=(1, 1), stride=(1, 1), bias=False)
              (exp_bn): BatchNorm2d(192, eps=1e-05, momentum=0.1, affine=True, track_running_stats=True)
              (exp_af): SiLU()
              (dwise): Conv2d(192, 192, kernel_size=(3, 3), stride=(1, 1), padding=(1, 1), groups=192, bias=False)
              (dwise_bn): BatchNorm2d(192, eps=1e-05, momentum=0.1, affine=True, track_running_stats=True)
              (dwise_af): SiLU()
              (se): SE(
                (avg_pool): AdaptiveAvgPool2d(output_size=(1, 1))
                (f_ex): Sequential(
                  (0): Conv2d(192, 8, kernel_size=(1, 1), stride=(1, 1))
                  (1): SiLU()
                  (2): Conv2d(8, 192, kernel_size=(1, 1), stride=(1, 1))
                  (3): Sigmoid()
                )
              )
              (lin_proj): Conv2d(192, 32, kernel_size=(1, 1), stride=(1, 1), bias=False)
              (lin_proj_bn): BatchNorm2d(32, eps=1e-05, momentum=0.1, affine=True, track_running_stats=True)
            )
            (b3): MBConv(
              (exp): Conv2d(32, 192, kernel_size=(1, 1), stride=(1, 1), bias=False)
              (exp_bn): BatchNorm2d(192, eps=1e-05, momentum=0.1, affine=True, track_running_stats=True)
              (exp_af): SiLU()
              (dwise): Conv2d(192, 192, kernel_size=(3, 3), stride=(1, 1), padding=(1, 1), groups=192, bias=False)
              (dwise_bn): BatchNorm2d(192, eps=1e-05, momentum=0.1, affine=True, track_running_stats=True)
              (dwise_af): SiLU()
              (se): SE(
                (avg_pool): AdaptiveAvgPool2d(output_size=(1, 1))
                (f_ex): Sequential(
                  (0): Conv2d(192, 8, kernel_size=(1, 1), stride=(1, 1))
                  (1): SiLU()
                  (2): Conv2d(8, 192, kernel_size=(1, 1), stride=(1, 1))
                  (3): Sigmoid()
                )
              )
              (lin_proj): Conv2d(192, 32, kernel_size=(1, 1), stride=(1, 1), bias=False)
              (lin_proj_bn): BatchNorm2d(32, eps=1e-05, momentum=0.1, affine=True, track_running_stats=True)
            )
          )
        )
        (1): Conv2d(32, 20, kernel_size=(1, 1), stride=(1, 1), bias=False)
        (2): BatchNorm2d(20, eps=1e-05, momentum=0.1, affine=True, track_running_stats=True)
      )
    )
  )
  (s3): BranchStage(
    (branches): ModuleList(
      (0): Sequential(
        (0): Sequential(
          (0): Conv2d(40, 32, kernel_size=(1, 1), stride=(1, 1), bias=False)
          (1): BatchNorm2d(32, eps=1e-05, momentum=0.1, affine=True, track_running_stats=True)
          (2): AnyStage(
            (b1): MBConv(
              (exp): Conv2d(32, 192, kernel_size=(1, 1), stride=(1, 1), bias=False)
              (exp_bn): BatchNorm2d(192, eps=1e-05, momentum=0.1, affine=True, track_running_stats=True)
              (exp_af): ReLU(inplace=True)
              (dwise): Conv2d(192, 192, kernel_size=(5, 5), stride=(2, 2), padding=(2, 2), groups=192, bias=False)
              (dwise_bn): BatchNorm2d(192, eps=1e-05, momentum=0.1, affine=True, track_running_stats=True)
              (dwise_af): ReLU(inplace=True)
              (se): SE(
                (avg_pool): AdaptiveAvgPool2d(output_size=(1, 1))
                (f_ex): Sequential(
                  (0): Conv2d(192, 8, kernel_size=(1, 1), stride=(1, 1))
                  (1): SiLU()
                  (2): Conv2d(8, 192, kernel_size=(1, 1), stride=(1, 1))
                  (3): Sigmoid()
                )
              )
              (lin_proj): Conv2d(192, 56, kernel_size=(1, 1), stride=(1, 1), bias=False)
              (lin_proj_bn): BatchNorm2d(56, eps=1e-05, momentum=0.1, affine=True, track_running_stats=True)
            )
            (b2): MBConv(
              (exp): Conv2d(56, 336, kernel_size=(1, 1), stride=(1, 1), bias=False)
              (exp_bn): BatchNorm2d(336, eps=1e-05, momentum=0.1, affine=True, track_running_stats=True)
              (exp_af): ReLU(inplace=True)
              (dwise): Conv2d(336, 336, kernel_size=(5, 5), stride=(1, 1), padding=(2, 2), groups=336, bias=False)
              (dwise_bn): BatchNorm2d(336, eps=1e-05, momentum=0.1, affine=True, track_running_stats=True)
              (dwise_af): ReLU(inplace=True)
              (se): SE(
                (avg_pool): AdaptiveAvgPool2d(output_size=(1, 1))
                (f_ex): Sequential(
                  (0): Conv2d(336, 14, kernel_size=(1, 1), stride=(1, 1))
                  (1): SiLU()
                  (2): Conv2d(14, 336, kernel_size=(1, 1), stride=(1, 1))
                  (3): Sigmoid()
                )
              )
              (lin_proj): Conv2d(336, 56, kernel_size=(1, 1), stride=(1, 1), bias=False)
              (lin_proj_bn): BatchNorm2d(56, eps=1e-05, momentum=0.1, affine=True, track_running_stats=True)
            )
            (b3): MBConv(
              (exp): Conv2d(56, 336, kernel_size=(1, 1), stride=(1, 1), bias=False)
              (exp_bn): BatchNorm2d(336, eps=1e-05, momentum=0.1, affine=True, track_running_stats=True)
              (exp_af): ReLU(inplace=True)
              (dwise): Conv2d(336, 336, kernel_size=(5, 5), stride=(1, 1), padding=(2, 2), groups=336, bias=False)
              (dwise_bn): BatchNorm2d(336, eps=1e-05, momentum=0.1, affine=True, track_running_stats=True)
              (dwise_af): ReLU(inplace=True)
              (se): SE(
                (avg_pool): AdaptiveAvgPool2d(output_size=(1, 1))
                (f_ex): Sequential(
                  (0): Conv2d(336, 14, kernel_size=(1, 1), stride=(1, 1))
                  (1): SiLU()
                  (2): Conv2d(14, 336, kernel_size=(1, 1), stride=(1, 1))
                  (3): Sigmoid()
                )
              )
              (lin_proj): Conv2d(336, 56, kernel_size=(1, 1), stride=(1, 1), bias=False)
              (lin_proj_bn): BatchNorm2d(56, eps=1e-05, momentum=0.1, affine=True, track_running_stats=True)
            )
          )
        )
        (1): Conv2d(56, 32, kernel_size=(1, 1), stride=(1, 1), bias=False)
        (2): BatchNorm2d(32, eps=1e-05, momentum=0.1, affine=True, track_running_stats=True)
      )
      (1): Sequential(
        (0): Sequential(
          (0): Conv2d(40, 32, kernel_size=(1, 1), stride=(1, 1), bias=False)
          (1): BatchNorm2d(32, eps=1e-05, momentum=0.1, affine=True, track_running_stats=True)
          (2): AnyStage(
            (b1): MBConv(
              (exp): Conv2d(32, 192, kernel_size=(1, 1), stride=(1, 1), bias=False)
              (exp_bn): BatchNorm2d(192, eps=1e-05, momentum=0.1, affine=True, track_running_stats=True)
              (exp_af): SiLU()
              (dwise): Conv2d(192, 192, kernel_size=(5, 5), stride=(2, 2), padding=(2, 2), groups=192, bias=False)
              (dwise_bn): BatchNorm2d(192, eps=1e-05, momentum=0.1, affine=True, track_running_stats=True)
              (dwise_af): SiLU()
              (se): SE(
                (avg_pool): AdaptiveAvgPool2d(output_size=(1, 1))
                (f_ex): Sequential(
                  (0): Conv2d(192, 8, kernel_size=(1, 1), stride=(1, 1))
                  (1): SiLU()
                  (2): Conv2d(8, 192, kernel_size=(1, 1), stride=(1, 1))
                  (3): Sigmoid()
                )
              )
              (lin_proj): Conv2d(192, 48, kernel_size=(1, 1), stride=(1, 1), bias=False)
              (lin_proj_bn): BatchNorm2d(48, eps=1e-05, momentum=0.1, affine=True, track_running_stats=True)
            )
            (b2): MBConv(
              (exp): Conv2d(48, 288, kernel_size=(1, 1), stride=(1, 1), bias=False)
              (exp_bn): BatchNorm2d(288, eps=1e-05, momentum=0.1, affine=True, track_running_stats=True)
              (exp_af): SiLU()
              (dwise): Conv2d(288, 288, kernel_size=(5, 5), stride=(1, 1), padding=(2, 2), groups=288, bias=False)
              (dwise_bn): BatchNorm2d(288, eps=1e-05, momentum=0.1, affine=True, track_running_stats=True)
              (dwise_af): SiLU()
              (se): SE(
                (avg_pool): AdaptiveAvgPool2d(output_size=(1, 1))
                (f_ex): Sequential(
                  (0): Conv2d(288, 12, kernel_size=(1, 1), stride=(1, 1))
                  (1): SiLU()
                  (2): Conv2d(12, 288, kernel_size=(1, 1), stride=(1, 1))
                  (3): Sigmoid()
                )
              )
              (lin_proj): Conv2d(288, 48, kernel_size=(1, 1), stride=(1, 1), bias=False)
              (lin_proj_bn): BatchNorm2d(48, eps=1e-05, momentum=0.1, affine=True, track_running_stats=True)
            )
            (b3): MBConv(
              (exp): Conv2d(48, 288, kernel_size=(1, 1), stride=(1, 1), bias=False)
              (exp_bn): BatchNorm2d(288, eps=1e-05, momentum=0.1, affine=True, track_running_stats=True)
              (exp_af): SiLU()
              (dwise): Conv2d(288, 288, kernel_size=(5, 5), stride=(1, 1), padding=(2, 2), groups=288, bias=False)
              (dwise_bn): BatchNorm2d(288, eps=1e-05, momentum=0.1, affine=True, track_running_stats=True)
              (dwise_af): SiLU()
              (se): SE(
                (avg_pool): AdaptiveAvgPool2d(output_size=(1, 1))
                (f_ex): Sequential(
                  (0): Conv2d(288, 12, kernel_size=(1, 1), stride=(1, 1))
                  (1): SiLU()
                  (2): Conv2d(12, 288, kernel_size=(1, 1), stride=(1, 1))
                  (3): Sigmoid()
                )
              )
              (lin_proj): Conv2d(288, 48, kernel_size=(1, 1), stride=(1, 1), bias=False)
              (lin_proj_bn): BatchNorm2d(48, eps=1e-05, momentum=0.1, affine=True, track_running_stats=True)
            )
          )
        )
        (1): Conv2d(48, 32, kernel_size=(1, 1), stride=(1, 1), bias=False)
        (2): BatchNorm2d(32, eps=1e-05, momentum=0.1, affine=True, track_running_stats=True)
      )
    )
  )
  (s4): BranchStage(
    (branches): ModuleList(
      (0): Sequential(
        (0): Sequential(
          (0): Conv2d(64, 56, kernel_size=(1, 1), stride=(1, 1), bias=False)
          (1): BatchNorm2d(56, eps=1e-05, momentum=0.1, affine=True, track_running_stats=True)
          (2): AnyStage(
            (b1): MBConv(
              (exp): Conv2d(56, 336, kernel_size=(1, 1), stride=(1, 1), bias=False)
              (exp_bn): BatchNorm2d(336, eps=1e-05, momentum=0.1, affine=True, track_running_stats=True)
              (exp_af): ReLU(inplace=True)
              (dwise): Conv2d(336, 336, kernel_size=(3, 3), stride=(2, 2), padding=(1, 1), groups=336, bias=False)
              (dwise_bn): BatchNorm2d(336, eps=1e-05, momentum=0.1, affine=True, track_running_stats=True)
              (dwise_af): ReLU(inplace=True)
              (se): SE(
                (avg_pool): AdaptiveAvgPool2d(output_size=(1, 1))
                (f_ex): Sequential(
                  (0): Conv2d(336, 14, kernel_size=(1, 1), stride=(1, 1))
                  (1): SiLU()
                  (2): Conv2d(14, 336, kernel_size=(1, 1), stride=(1, 1))
                  (3): Sigmoid()
                )
              )
              (lin_proj): Conv2d(336, 112, kernel_size=(1, 1), stride=(1, 1), bias=False)
              (lin_proj_bn): BatchNorm2d(112, eps=1e-05, momentum=0.1, affine=True, track_running_stats=True)
            )
            (b2): MBConv(
              (exp): Conv2d(112, 672, kernel_size=(1, 1), stride=(1, 1), bias=False)
              (exp_bn): BatchNorm2d(672, eps=1e-05, momentum=0.1, affine=True, track_running_stats=True)
              (exp_af): ReLU(inplace=True)
              (dwise): Conv2d(672, 672, kernel_size=(3, 3), stride=(1, 1), padding=(1, 1), groups=672, bias=False)
              (dwise_bn): BatchNorm2d(672, eps=1e-05, momentum=0.1, affine=True, track_running_stats=True)
              (dwise_af): ReLU(inplace=True)
              (se): SE(
                (avg_pool): AdaptiveAvgPool2d(output_size=(1, 1))
                (f_ex): Sequential(
                  (0): Conv2d(672, 28, kernel_size=(1, 1), stride=(1, 1))
                  (1): SiLU()
                  (2): Conv2d(28, 672, kernel_size=(1, 1), stride=(1, 1))
                  (3): Sigmoid()
                )
              )
              (lin_proj): Conv2d(672, 112, kernel_size=(1, 1), stride=(1, 1), bias=False)
              (lin_proj_bn): BatchNorm2d(112, eps=1e-05, momentum=0.1, affine=True, track_running_stats=True)
            )
            (b3): MBConv(
              (exp): Conv2d(112, 672, kernel_size=(1, 1), stride=(1, 1), bias=False)
              (exp_bn): BatchNorm2d(672, eps=1e-05, momentum=0.1, affine=True, track_running_stats=True)
              (exp_af): ReLU(inplace=True)
              (dwise): Conv2d(672, 672, kernel_size=(3, 3), stride=(1, 1), padding=(1, 1), groups=672, bias=False)
              (dwise_bn): BatchNorm2d(672, eps=1e-05, momentum=0.1, affine=True, track_running_stats=True)
              (dwise_af): ReLU(inplace=True)
              (se): SE(
                (avg_pool): AdaptiveAvgPool2d(output_size=(1, 1))
                (f_ex): Sequential(
                  (0): Conv2d(672, 28, kernel_size=(1, 1), stride=(1, 1))
                  (1): SiLU()
                  (2): Conv2d(28, 672, kernel_size=(1, 1), stride=(1, 1))
                  (3): Sigmoid()
                )
              )
              (lin_proj): Conv2d(672, 112, kernel_size=(1, 1), stride=(1, 1), bias=False)
              (lin_proj_bn): BatchNorm2d(112, eps=1e-05, momentum=0.1, affine=True, track_running_stats=True)
            )
            (b4): MBConv(
              (exp): Conv2d(112, 672, kernel_size=(1, 1), stride=(1, 1), bias=False)
              (exp_bn): BatchNorm2d(672, eps=1e-05, momentum=0.1, affine=True, track_running_stats=True)
              (exp_af): ReLU(inplace=True)
              (dwise): Conv2d(672, 672, kernel_size=(3, 3), stride=(1, 1), padding=(1, 1), groups=672, bias=False)
              (dwise_bn): BatchNorm2d(672, eps=1e-05, momentum=0.1, affine=True, track_running_stats=True)
              (dwise_af): ReLU(inplace=True)
              (se): SE(
                (avg_pool): AdaptiveAvgPool2d(output_size=(1, 1))
                (f_ex): Sequential(
                  (0): Conv2d(672, 28, kernel_size=(1, 1), stride=(1, 1))
                  (1): SiLU()
                  (2): Conv2d(28, 672, kernel_size=(1, 1), stride=(1, 1))
                  (3): Sigmoid()
                )
              )
              (lin_proj): Conv2d(672, 112, kernel_size=(1, 1), stride=(1, 1), bias=False)
              (lin_proj_bn): BatchNorm2d(112, eps=1e-05, momentum=0.1, affine=True, track_running_stats=True)
            )
            (b5): MBConv(
              (exp): Conv2d(112, 672, kernel_size=(1, 1), stride=(1, 1), bias=False)
              (exp_bn): BatchNorm2d(672, eps=1e-05, momentum=0.1, affine=True, track_running_stats=True)
              (exp_af): ReLU(inplace=True)
              (dwise): Conv2d(672, 672, kernel_size=(3, 3), stride=(1, 1), padding=(1, 1), groups=672, bias=False)
              (dwise_bn): BatchNorm2d(672, eps=1e-05, momentum=0.1, affine=True, track_running_stats=True)
              (dwise_af): ReLU(inplace=True)
              (se): SE(
                (avg_pool): AdaptiveAvgPool2d(output_size=(1, 1))
                (f_ex): Sequential(
                  (0): Conv2d(672, 28, kernel_size=(1, 1), stride=(1, 1))
                  (1): SiLU()
                  (2): Conv2d(28, 672, kernel_size=(1, 1), stride=(1, 1))
                  (3): Sigmoid()
                )
              )
              (lin_proj): Conv2d(672, 112, kernel_size=(1, 1), stride=(1, 1), bias=False)
              (lin_proj_bn): BatchNorm2d(112, eps=1e-05, momentum=0.1, affine=True, track_running_stats=True)
            )
            (b6): MBConv(
              (exp): Conv2d(112, 672, kernel_size=(1, 1), stride=(1, 1), bias=False)
              (exp_bn): BatchNorm2d(672, eps=1e-05, momentum=0.1, affine=True, track_running_stats=True)
              (exp_af): ReLU(inplace=True)
              (dwise): Conv2d(672, 672, kernel_size=(3, 3), stride=(1, 1), padding=(1, 1), groups=672, bias=False)
              (dwise_bn): BatchNorm2d(672, eps=1e-05, momentum=0.1, affine=True, track_running_stats=True)
              (dwise_af): ReLU(inplace=True)
              (se): SE(
                (avg_pool): AdaptiveAvgPool2d(output_size=(1, 1))
                (f_ex): Sequential(
                  (0): Conv2d(672, 28, kernel_size=(1, 1), stride=(1, 1))
                  (1): SiLU()
                  (2): Conv2d(28, 672, kernel_size=(1, 1), stride=(1, 1))
                  (3): Sigmoid()
                )
              )
              (lin_proj): Conv2d(672, 112, kernel_size=(1, 1), stride=(1, 1), bias=False)
              (lin_proj_bn): BatchNorm2d(112, eps=1e-05, momentum=0.1, affine=True, track_running_stats=True)
            )
          )
        )
        (1): Conv2d(112, 64, kernel_size=(1, 1), stride=(1, 1), bias=False)
        (2): BatchNorm2d(64, eps=1e-05, momentum=0.1, affine=True, track_running_stats=True)
      )
      (1): Sequential(
        (0): Sequential(
          (0): Conv2d(64, 48, kernel_size=(1, 1), stride=(1, 1), bias=False)
          (1): BatchNorm2d(48, eps=1e-05, momentum=0.1, affine=True, track_running_stats=True)
          (2): AnyStage(
            (b1): MBConv(
              (exp): Conv2d(48, 288, kernel_size=(1, 1), stride=(1, 1), bias=False)
              (exp_bn): BatchNorm2d(288, eps=1e-05, momentum=0.1, affine=True, track_running_stats=True)
              (exp_af): SiLU()
              (dwise): Conv2d(288, 288, kernel_size=(3, 3), stride=(2, 2), padding=(1, 1), groups=288, bias=False)
              (dwise_bn): BatchNorm2d(288, eps=1e-05, momentum=0.1, affine=True, track_running_stats=True)
              (dwise_af): SiLU()
              (se): SE(
                (avg_pool): AdaptiveAvgPool2d(output_size=(1, 1))
                (f_ex): Sequential(
                  (0): Conv2d(288, 12, kernel_size=(1, 1), stride=(1, 1))
                  (1): SiLU()
                  (2): Conv2d(12, 288, kernel_size=(1, 1), stride=(1, 1))
                  (3): Sigmoid()
                )
              )
              (lin_proj): Conv2d(288, 96, kernel_size=(1, 1), stride=(1, 1), bias=False)
              (lin_proj_bn): BatchNorm2d(96, eps=1e-05, momentum=0.1, affine=True, track_running_stats=True)
            )
            (b2): MBConv(
              (exp): Conv2d(96, 576, kernel_size=(1, 1), stride=(1, 1), bias=False)
              (exp_bn): BatchNorm2d(576, eps=1e-05, momentum=0.1, affine=True, track_running_stats=True)
              (exp_af): SiLU()
              (dwise): Conv2d(576, 576, kernel_size=(3, 3), stride=(1, 1), padding=(1, 1), groups=576, bias=False)
              (dwise_bn): BatchNorm2d(576, eps=1e-05, momentum=0.1, affine=True, track_running_stats=True)
              (dwise_af): SiLU()
              (se): SE(
                (avg_pool): AdaptiveAvgPool2d(output_size=(1, 1))
                (f_ex): Sequential(
                  (0): Conv2d(576, 24, kernel_size=(1, 1), stride=(1, 1))
                  (1): SiLU()
                  (2): Conv2d(24, 576, kernel_size=(1, 1), stride=(1, 1))
                  (3): Sigmoid()
                )
              )
              (lin_proj): Conv2d(576, 96, kernel_size=(1, 1), stride=(1, 1), bias=False)
              (lin_proj_bn): BatchNorm2d(96, eps=1e-05, momentum=0.1, affine=True, track_running_stats=True)
            )
            (b3): MBConv(
              (exp): Conv2d(96, 576, kernel_size=(1, 1), stride=(1, 1), bias=False)
              (exp_bn): BatchNorm2d(576, eps=1e-05, momentum=0.1, affine=True, track_running_stats=True)
              (exp_af): SiLU()
              (dwise): Conv2d(576, 576, kernel_size=(3, 3), stride=(1, 1), padding=(1, 1), groups=576, bias=False)
              (dwise_bn): BatchNorm2d(576, eps=1e-05, momentum=0.1, affine=True, track_running_stats=True)
              (dwise_af): SiLU()
              (se): SE(
                (avg_pool): AdaptiveAvgPool2d(output_size=(1, 1))
                (f_ex): Sequential(
                  (0): Conv2d(576, 24, kernel_size=(1, 1), stride=(1, 1))
                  (1): SiLU()
                  (2): Conv2d(24, 576, kernel_size=(1, 1), stride=(1, 1))
                  (3): Sigmoid()
                )
              )
              (lin_proj): Conv2d(576, 96, kernel_size=(1, 1), stride=(1, 1), bias=False)
              (lin_proj_bn): BatchNorm2d(96, eps=1e-05, momentum=0.1, affine=True, track_running_stats=True)
            )
            (b4): MBConv(
              (exp): Conv2d(96, 576, kernel_size=(1, 1), stride=(1, 1), bias=False)
              (exp_bn): BatchNorm2d(576, eps=1e-05, momentum=0.1, affine=True, track_running_stats=True)
              (exp_af): SiLU()
              (dwise): Conv2d(576, 576, kernel_size=(3, 3), stride=(1, 1), padding=(1, 1), groups=576, bias=False)
              (dwise_bn): BatchNorm2d(576, eps=1e-05, momentum=0.1, affine=True, track_running_stats=True)
              (dwise_af): SiLU()
              (se): SE(
                (avg_pool): AdaptiveAvgPool2d(output_size=(1, 1))
                (f_ex): Sequential(
                  (0): Conv2d(576, 24, kernel_size=(1, 1), stride=(1, 1))
                  (1): SiLU()
                  (2): Conv2d(24, 576, kernel_size=(1, 1), stride=(1, 1))
                  (3): Sigmoid()
                )
              )
              (lin_proj): Conv2d(576, 96, kernel_size=(1, 1), stride=(1, 1), bias=False)
              (lin_proj_bn): BatchNorm2d(96, eps=1e-05, momentum=0.1, affine=True, track_running_stats=True)
            )
            (b5): MBConv(
              (exp): Conv2d(96, 576, kernel_size=(1, 1), stride=(1, 1), bias=False)
              (exp_bn): BatchNorm2d(576, eps=1e-05, momentum=0.1, affine=True, track_running_stats=True)
              (exp_af): SiLU()
              (dwise): Conv2d(576, 576, kernel_size=(3, 3), stride=(1, 1), padding=(1, 1), groups=576, bias=False)
              (dwise_bn): BatchNorm2d(576, eps=1e-05, momentum=0.1, affine=True, track_running_stats=True)
              (dwise_af): SiLU()
              (se): SE(
                (avg_pool): AdaptiveAvgPool2d(output_size=(1, 1))
                (f_ex): Sequential(
                  (0): Conv2d(576, 24, kernel_size=(1, 1), stride=(1, 1))
                  (1): SiLU()
                  (2): Conv2d(24, 576, kernel_size=(1, 1), stride=(1, 1))
                  (3): Sigmoid()
                )
              )
              (lin_proj): Conv2d(576, 96, kernel_size=(1, 1), stride=(1, 1), bias=False)
              (lin_proj_bn): BatchNorm2d(96, eps=1e-05, momentum=0.1, affine=True, track_running_stats=True)
            )
          )
        )
        (1): Conv2d(96, 64, kernel_size=(1, 1), stride=(1, 1), bias=False)
        (2): BatchNorm2d(64, eps=1e-05, momentum=0.1, affine=True, track_running_stats=True)
      )
    )
  )
  (s5): BranchStage(
    (branches): ModuleList(
      (0): Sequential(
        (0): Sequential(
          (0): Conv2d(128, 120, kernel_size=(1, 1), stride=(1, 1), bias=False)
          (1): BatchNorm2d(120, eps=1e-05, momentum=0.1, affine=True, track_running_stats=True)
          (2): AnyStage(
            (b1): MBConv(
              (exp): Conv2d(120, 720, kernel_size=(1, 1), stride=(1, 1), bias=False)
              (exp_bn): BatchNorm2d(720, eps=1e-05, momentum=0.1, affine=True, track_running_stats=True)
              (exp_af): ReLU(inplace=True)
              (dwise): Conv2d(720, 720, kernel_size=(5, 5), stride=(1, 1), padding=(2, 2), groups=720, bias=False)
              (dwise_bn): BatchNorm2d(720, eps=1e-05, momentum=0.1, affine=True, track_running_stats=True)
              (dwise_af): ReLU(inplace=True)
              (se): SE(
                (avg_pool): AdaptiveAvgPool2d(output_size=(1, 1))
                (f_ex): Sequential(
                  (0): Conv2d(720, 30, kernel_size=(1, 1), stride=(1, 1))
                  (1): SiLU()
                  (2): Conv2d(30, 720, kernel_size=(1, 1), stride=(1, 1))
                  (3): Sigmoid()
                )
              )
              (lin_proj): Conv2d(720, 160, kernel_size=(1, 1), stride=(1, 1), bias=False)
              (lin_proj_bn): BatchNorm2d(160, eps=1e-05, momentum=0.1, affine=True, track_running_stats=True)
            )
            (b2): MBConv(
              (exp): Conv2d(160, 960, kernel_size=(1, 1), stride=(1, 1), bias=False)
              (exp_bn): BatchNorm2d(960, eps=1e-05, momentum=0.1, affine=True, track_running_stats=True)
              (exp_af): ReLU(inplace=True)
              (dwise): Conv2d(960, 960, kernel_size=(5, 5), stride=(1, 1), padding=(2, 2), groups=960, bias=False)
              (dwise_bn): BatchNorm2d(960, eps=1e-05, momentum=0.1, affine=True, track_running_stats=True)
              (dwise_af): ReLU(inplace=True)
              (se): SE(
                (avg_pool): AdaptiveAvgPool2d(output_size=(1, 1))
                (f_ex): Sequential(
                  (0): Conv2d(960, 40, kernel_size=(1, 1), stride=(1, 1))
                  (1): SiLU()
                  (2): Conv2d(40, 960, kernel_size=(1, 1), stride=(1, 1))
                  (3): Sigmoid()
                )
              )
              (lin_proj): Conv2d(960, 160, kernel_size=(1, 1), stride=(1, 1), bias=False)
              (lin_proj_bn): BatchNorm2d(160, eps=1e-05, momentum=0.1, affine=True, track_running_stats=True)
            )
            (b3): MBConv(
              (exp): Conv2d(160, 960, kernel_size=(1, 1), stride=(1, 1), bias=False)
              (exp_bn): BatchNorm2d(960, eps=1e-05, momentum=0.1, affine=True, track_running_stats=True)
              (exp_af): ReLU(inplace=True)
              (dwise): Conv2d(960, 960, kernel_size=(5, 5), stride=(1, 1), padding=(2, 2), groups=960, bias=False)
              (dwise_bn): BatchNorm2d(960, eps=1e-05, momentum=0.1, affine=True, track_running_stats=True)
              (dwise_af): ReLU(inplace=True)
              (se): SE(
                (avg_pool): AdaptiveAvgPool2d(output_size=(1, 1))
                (f_ex): Sequential(
                  (0): Conv2d(960, 40, kernel_size=(1, 1), stride=(1, 1))
                  (1): SiLU()
                  (2): Conv2d(40, 960, kernel_size=(1, 1), stride=(1, 1))
                  (3): Sigmoid()
                )
              )
              (lin_proj): Conv2d(960, 160, kernel_size=(1, 1), stride=(1, 1), bias=False)
              (lin_proj_bn): BatchNorm2d(160, eps=1e-05, momentum=0.1, affine=True, track_running_stats=True)
            )
            (b4): MBConv(
              (exp): Conv2d(160, 960, kernel_size=(1, 1), stride=(1, 1), bias=False)
              (exp_bn): BatchNorm2d(960, eps=1e-05, momentum=0.1, affine=True, track_running_stats=True)
              (exp_af): ReLU(inplace=True)
              (dwise): Conv2d(960, 960, kernel_size=(5, 5), stride=(1, 1), padding=(2, 2), groups=960, bias=False)
              (dwise_bn): BatchNorm2d(960, eps=1e-05, momentum=0.1, affine=True, track_running_stats=True)
              (dwise_af): ReLU(inplace=True)
              (se): SE(
                (avg_pool): AdaptiveAvgPool2d(output_size=(1, 1))
                (f_ex): Sequential(
                  (0): Conv2d(960, 40, kernel_size=(1, 1), stride=(1, 1))
                  (1): SiLU()
                  (2): Conv2d(40, 960, kernel_size=(1, 1), stride=(1, 1))
                  (3): Sigmoid()
                )
              )
              (lin_proj): Conv2d(960, 160, kernel_size=(1, 1), stride=(1, 1), bias=False)
              (lin_proj_bn): BatchNorm2d(160, eps=1e-05, momentum=0.1, affine=True, track_running_stats=True)
            )
          )
        )
        (1): Conv2d(160, 88, kernel_size=(1, 1), stride=(1, 1), bias=False)
        (2): BatchNorm2d(88, eps=1e-05, momentum=0.1, affine=True, track_running_stats=True)
      )
      (1): Sequential(
        (0): Sequential(
          (0): Conv2d(128, 96, kernel_size=(1, 1), stride=(1, 1), bias=False)
          (1): BatchNorm2d(96, eps=1e-05, momentum=0.1, affine=True, track_running_stats=True)
          (2): AnyStage(
            (b1): MBConv(
              (exp): Conv2d(96, 576, kernel_size=(1, 1), stride=(1, 1), bias=False)
              (exp_bn): BatchNorm2d(576, eps=1e-05, momentum=0.1, affine=True, track_running_stats=True)
              (exp_af): SiLU()
              (dwise): Conv2d(576, 576, kernel_size=(5, 5), stride=(1, 1), padding=(2, 2), groups=576, bias=False)
              (dwise_bn): BatchNorm2d(576, eps=1e-05, momentum=0.1, affine=True, track_running_stats=True)
              (dwise_af): SiLU()
              (se): SE(
                (avg_pool): AdaptiveAvgPool2d(output_size=(1, 1))
                (f_ex): Sequential(
                  (0): Conv2d(576, 24, kernel_size=(1, 1), stride=(1, 1))
                  (1): SiLU()
                  (2): Conv2d(24, 576, kernel_size=(1, 1), stride=(1, 1))
                  (3): Sigmoid()
                )
              )
              (lin_proj): Conv2d(576, 136, kernel_size=(1, 1), stride=(1, 1), bias=False)
              (lin_proj_bn): BatchNorm2d(136, eps=1e-05, momentum=0.1, affine=True, track_running_stats=True)
            )
            (b2): MBConv(
              (exp): Conv2d(136, 816, kernel_size=(1, 1), stride=(1, 1), bias=False)
              (exp_bn): BatchNorm2d(816, eps=1e-05, momentum=0.1, affine=True, track_running_stats=True)
              (exp_af): SiLU()
              (dwise): Conv2d(816, 816, kernel_size=(5, 5), stride=(1, 1), padding=(2, 2), groups=816, bias=False)
              (dwise_bn): BatchNorm2d(816, eps=1e-05, momentum=0.1, affine=True, track_running_stats=True)
              (dwise_af): SiLU()
              (se): SE(
                (avg_pool): AdaptiveAvgPool2d(output_size=(1, 1))
                (f_ex): Sequential(
                  (0): Conv2d(816, 34, kernel_size=(1, 1), stride=(1, 1))
                  (1): SiLU()
                  (2): Conv2d(34, 816, kernel_size=(1, 1), stride=(1, 1))
                  (3): Sigmoid()
                )
              )
              (lin_proj): Conv2d(816, 136, kernel_size=(1, 1), stride=(1, 1), bias=False)
              (lin_proj_bn): BatchNorm2d(136, eps=1e-05, momentum=0.1, affine=True, track_running_stats=True)
            )
            (b3): MBConv(
              (exp): Conv2d(136, 816, kernel_size=(1, 1), stride=(1, 1), bias=False)
              (exp_bn): BatchNorm2d(816, eps=1e-05, momentum=0.1, affine=True, track_running_stats=True)
              (exp_af): SiLU()
              (dwise): Conv2d(816, 816, kernel_size=(5, 5), stride=(1, 1), padding=(2, 2), groups=816, bias=False)
              (dwise_bn): BatchNorm2d(816, eps=1e-05, momentum=0.1, affine=True, track_running_stats=True)
              (dwise_af): SiLU()
              (se): SE(
                (avg_pool): AdaptiveAvgPool2d(output_size=(1, 1))
                (f_ex): Sequential(
                  (0): Conv2d(816, 34, kernel_size=(1, 1), stride=(1, 1))
                  (1): SiLU()
                  (2): Conv2d(34, 816, kernel_size=(1, 1), stride=(1, 1))
                  (3): Sigmoid()
                )
              )
              (lin_proj): Conv2d(816, 136, kernel_size=(1, 1), stride=(1, 1), bias=False)
              (lin_proj_bn): BatchNorm2d(136, eps=1e-05, momentum=0.1, affine=True, track_running_stats=True)
            )
            (b4): MBConv(
              (exp): Conv2d(136, 816, kernel_size=(1, 1), stride=(1, 1), bias=False)
              (exp_bn): BatchNorm2d(816, eps=1e-05, momentum=0.1, affine=True, track_running_stats=True)
              (exp_af): SiLU()
              (dwise): Conv2d(816, 816, kernel_size=(5, 5), stride=(1, 1), padding=(2, 2), groups=816, bias=False)
              (dwise_bn): BatchNorm2d(816, eps=1e-05, momentum=0.1, affine=True, track_running_stats=True)
              (dwise_af): SiLU()
              (se): SE(
                (avg_pool): AdaptiveAvgPool2d(output_size=(1, 1))
                (f_ex): Sequential(
                  (0): Conv2d(816, 34, kernel_size=(1, 1), stride=(1, 1))
                  (1): SiLU()
                  (2): Conv2d(34, 816, kernel_size=(1, 1), stride=(1, 1))
                  (3): Sigmoid()
                )
              )
              (lin_proj): Conv2d(816, 136, kernel_size=(1, 1), stride=(1, 1), bias=False)
              (lin_proj_bn): BatchNorm2d(136, eps=1e-05, momentum=0.1, affine=True, track_running_stats=True)
            )
            (b5): MBConv(
              (exp): Conv2d(136, 816, kernel_size=(1, 1), stride=(1, 1), bias=False)
              (exp_bn): BatchNorm2d(816, eps=1e-05, momentum=0.1, affine=True, track_running_stats=True)
              (exp_af): SiLU()
              (dwise): Conv2d(816, 816, kernel_size=(5, 5), stride=(1, 1), padding=(2, 2), groups=816, bias=False)
              (dwise_bn): BatchNorm2d(816, eps=1e-05, momentum=0.1, affine=True, track_running_stats=True)
              (dwise_af): SiLU()
              (se): SE(
                (avg_pool): AdaptiveAvgPool2d(output_size=(1, 1))
                (f_ex): Sequential(
                  (0): Conv2d(816, 34, kernel_size=(1, 1), stride=(1, 1))
                  (1): SiLU()
                  (2): Conv2d(34, 816, kernel_size=(1, 1), stride=(1, 1))
                  (3): Sigmoid()
                )
              )
              (lin_proj): Conv2d(816, 136, kernel_size=(1, 1), stride=(1, 1), bias=False)
              (lin_proj_bn): BatchNorm2d(136, eps=1e-05, momentum=0.1, affine=True, track_running_stats=True)
            )
          )
        )
        (1): Conv2d(136, 88, kernel_size=(1, 1), stride=(1, 1), bias=False)
        (2): BatchNorm2d(88, eps=1e-05, momentum=0.1, affine=True, track_running_stats=True)
      )
    )
  )
  (s6): BranchStage(
    (branches): ModuleList(
      (0): Sequential(
        (0): Sequential(
          (0): Conv2d(176, 160, kernel_size=(1, 1), stride=(1, 1), bias=False)
          (1): BatchNorm2d(160, eps=1e-05, momentum=0.1, affine=True, track_running_stats=True)
          (2): AnyStage(
            (b1): MBConv(
              (exp): Conv2d(160, 960, kernel_size=(1, 1), stride=(1, 1), bias=False)
              (exp_bn): BatchNorm2d(960, eps=1e-05, momentum=0.1, affine=True, track_running_stats=True)
              (exp_af): ReLU(inplace=True)
              (dwise): Conv2d(960, 960, kernel_size=(5, 5), stride=(2, 2), padding=(2, 2), groups=960, bias=False)
              (dwise_bn): BatchNorm2d(960, eps=1e-05, momentum=0.1, affine=True, track_running_stats=True)
              (dwise_af): ReLU(inplace=True)
              (se): SE(
                (avg_pool): AdaptiveAvgPool2d(output_size=(1, 1))
                (f_ex): Sequential(
                  (0): Conv2d(960, 40, kernel_size=(1, 1), stride=(1, 1))
                  (1): SiLU()
                  (2): Conv2d(40, 960, kernel_size=(1, 1), stride=(1, 1))
                  (3): Sigmoid()
                )
              )
              (lin_proj): Conv2d(960, 272, kernel_size=(1, 1), stride=(1, 1), bias=False)
              (lin_proj_bn): BatchNorm2d(272, eps=1e-05, momentum=0.1, affine=True, track_running_stats=True)
            )
            (b2): MBConv(
              (exp): Conv2d(272, 1632, kernel_size=(1, 1), stride=(1, 1), bias=False)
              (exp_bn): BatchNorm2d(1632, eps=1e-05, momentum=0.1, affine=True, track_running_stats=True)
              (exp_af): ReLU(inplace=True)
              (dwise): Conv2d(1632, 1632, kernel_size=(5, 5), stride=(1, 1), padding=(2, 2), groups=1632, bias=False)
              (dwise_bn): BatchNorm2d(1632, eps=1e-05, momentum=0.1, affine=True, track_running_stats=True)
              (dwise_af): ReLU(inplace=True)
              (se): SE(
                (avg_pool): AdaptiveAvgPool2d(output_size=(1, 1))
                (f_ex): Sequential(
                  (0): Conv2d(1632, 68, kernel_size=(1, 1), stride=(1, 1))
                  (1): SiLU()
                  (2): Conv2d(68, 1632, kernel_size=(1, 1), stride=(1, 1))
                  (3): Sigmoid()
                )
              )
              (lin_proj): Conv2d(1632, 272, kernel_size=(1, 1), stride=(1, 1), bias=False)
              (lin_proj_bn): BatchNorm2d(272, eps=1e-05, momentum=0.1, affine=True, track_running_stats=True)
            )
            (b3): MBConv(
              (exp): Conv2d(272, 1632, kernel_size=(1, 1), stride=(1, 1), bias=False)
              (exp_bn): BatchNorm2d(1632, eps=1e-05, momentum=0.1, affine=True, track_running_stats=True)
              (exp_af): ReLU(inplace=True)
              (dwise): Conv2d(1632, 1632, kernel_size=(5, 5), stride=(1, 1), padding=(2, 2), groups=1632, bias=False)
              (dwise_bn): BatchNorm2d(1632, eps=1e-05, momentum=0.1, affine=True, track_running_stats=True)
              (dwise_af): ReLU(inplace=True)
              (se): SE(
                (avg_pool): AdaptiveAvgPool2d(output_size=(1, 1))
                (f_ex): Sequential(
                  (0): Conv2d(1632, 68, kernel_size=(1, 1), stride=(1, 1))
                  (1): SiLU()
                  (2): Conv2d(68, 1632, kernel_size=(1, 1), stride=(1, 1))
                  (3): Sigmoid()
                )
              )
              (lin_proj): Conv2d(1632, 272, kernel_size=(1, 1), stride=(1, 1), bias=False)
              (lin_proj_bn): BatchNorm2d(272, eps=1e-05, momentum=0.1, affine=True, track_running_stats=True)
            )
            (b4): MBConv(
              (exp): Conv2d(272, 1632, kernel_size=(1, 1), stride=(1, 1), bias=False)
              (exp_bn): BatchNorm2d(1632, eps=1e-05, momentum=0.1, affine=True, track_running_stats=True)
              (exp_af): ReLU(inplace=True)
              (dwise): Conv2d(1632, 1632, kernel_size=(5, 5), stride=(1, 1), padding=(2, 2), groups=1632, bias=False)
              (dwise_bn): BatchNorm2d(1632, eps=1e-05, momentum=0.1, affine=True, track_running_stats=True)
              (dwise_af): ReLU(inplace=True)
              (se): SE(
                (avg_pool): AdaptiveAvgPool2d(output_size=(1, 1))
                (f_ex): Sequential(
                  (0): Conv2d(1632, 68, kernel_size=(1, 1), stride=(1, 1))
                  (1): SiLU()
                  (2): Conv2d(68, 1632, kernel_size=(1, 1), stride=(1, 1))
                  (3): Sigmoid()
                )
              )
              (lin_proj): Conv2d(1632, 272, kernel_size=(1, 1), stride=(1, 1), bias=False)
              (lin_proj_bn): BatchNorm2d(272, eps=1e-05, momentum=0.1, affine=True, track_running_stats=True)
            )
            (b5): MBConv(
              (exp): Conv2d(272, 1632, kernel_size=(1, 1), stride=(1, 1), bias=False)
              (exp_bn): BatchNorm2d(1632, eps=1e-05, momentum=0.1, affine=True, track_running_stats=True)
              (exp_af): ReLU(inplace=True)
              (dwise): Conv2d(1632, 1632, kernel_size=(5, 5), stride=(1, 1), padding=(2, 2), groups=1632, bias=False)
              (dwise_bn): BatchNorm2d(1632, eps=1e-05, momentum=0.1, affine=True, track_running_stats=True)
              (dwise_af): ReLU(inplace=True)
              (se): SE(
                (avg_pool): AdaptiveAvgPool2d(output_size=(1, 1))
                (f_ex): Sequential(
                  (0): Conv2d(1632, 68, kernel_size=(1, 1), stride=(1, 1))
                  (1): SiLU()
                  (2): Conv2d(68, 1632, kernel_size=(1, 1), stride=(1, 1))
                  (3): Sigmoid()
                )
              )
              (lin_proj): Conv2d(1632, 272, kernel_size=(1, 1), stride=(1, 1), bias=False)
              (lin_proj_bn): BatchNorm2d(272, eps=1e-05, momentum=0.1, affine=True, track_running_stats=True)
            )
            (b6): MBConv(
              (exp): Conv2d(272, 1632, kernel_size=(1, 1), stride=(1, 1), bias=False)
              (exp_bn): BatchNorm2d(1632, eps=1e-05, momentum=0.1, affine=True, track_running_stats=True)
              (exp_af): ReLU(inplace=True)
              (dwise): Conv2d(1632, 1632, kernel_size=(5, 5), stride=(1, 1), padding=(2, 2), groups=1632, bias=False)
              (dwise_bn): BatchNorm2d(1632, eps=1e-05, momentum=0.1, affine=True, track_running_stats=True)
              (dwise_af): ReLU(inplace=True)
              (se): SE(
                (avg_pool): AdaptiveAvgPool2d(output_size=(1, 1))
                (f_ex): Sequential(
                  (0): Conv2d(1632, 68, kernel_size=(1, 1), stride=(1, 1))
                  (1): SiLU()
                  (2): Conv2d(68, 1632, kernel_size=(1, 1), stride=(1, 1))
                  (3): Sigmoid()
                )
              )
              (lin_proj): Conv2d(1632, 272, kernel_size=(1, 1), stride=(1, 1), bias=False)
              (lin_proj_bn): BatchNorm2d(272, eps=1e-05, momentum=0.1, affine=True, track_running_stats=True)
            )
            (b7): MBConv(
              (exp): Conv2d(272, 1632, kernel_size=(1, 1), stride=(1, 1), bias=False)
              (exp_bn): BatchNorm2d(1632, eps=1e-05, momentum=0.1, affine=True, track_running_stats=True)
              (exp_af): ReLU(inplace=True)
              (dwise): Conv2d(1632, 1632, kernel_size=(5, 5), stride=(1, 1), padding=(2, 2), groups=1632, bias=False)
              (dwise_bn): BatchNorm2d(1632, eps=1e-05, momentum=0.1, affine=True, track_running_stats=True)
              (dwise_af): ReLU(inplace=True)
              (se): SE(
                (avg_pool): AdaptiveAvgPool2d(output_size=(1, 1))
                (f_ex): Sequential(
                  (0): Conv2d(1632, 68, kernel_size=(1, 1), stride=(1, 1))
                  (1): SiLU()
                  (2): Conv2d(68, 1632, kernel_size=(1, 1), stride=(1, 1))
                  (3): Sigmoid()
                )
              )
              (lin_proj): Conv2d(1632, 272, kernel_size=(1, 1), stride=(1, 1), bias=False)
              (lin_proj_bn): BatchNorm2d(272, eps=1e-05, momentum=0.1, affine=True, track_running_stats=True)
            )
          )
        )
        (1): Conv2d(272, 152, kernel_size=(1, 1), stride=(1, 1), bias=False)
        (2): BatchNorm2d(152, eps=1e-05, momentum=0.1, affine=True, track_running_stats=True)
      )
      (1): Sequential(
        (0): Sequential(
          (0): Conv2d(176, 136, kernel_size=(1, 1), stride=(1, 1), bias=False)
          (1): BatchNorm2d(136, eps=1e-05, momentum=0.1, affine=True, track_running_stats=True)
          (2): AnyStage(
            (b1): MBConv(
              (exp): Conv2d(136, 816, kernel_size=(1, 1), stride=(1, 1), bias=False)
              (exp_bn): BatchNorm2d(816, eps=1e-05, momentum=0.1, affine=True, track_running_stats=True)
              (exp_af): SiLU()
              (dwise): Conv2d(816, 816, kernel_size=(5, 5), stride=(2, 2), padding=(2, 2), groups=816, bias=False)
              (dwise_bn): BatchNorm2d(816, eps=1e-05, momentum=0.1, affine=True, track_running_stats=True)
              (dwise_af): SiLU()
              (se): SE(
                (avg_pool): AdaptiveAvgPool2d(output_size=(1, 1))
                (f_ex): Sequential(
                  (0): Conv2d(816, 34, kernel_size=(1, 1), stride=(1, 1))
                  (1): SiLU()
                  (2): Conv2d(34, 816, kernel_size=(1, 1), stride=(1, 1))
                  (3): Sigmoid()
                )
              )
              (lin_proj): Conv2d(816, 232, kernel_size=(1, 1), stride=(1, 1), bias=False)
              (lin_proj_bn): BatchNorm2d(232, eps=1e-05, momentum=0.1, affine=True, track_running_stats=True)
            )
            (b2): MBConv(
              (exp): Conv2d(232, 1392, kernel_size=(1, 1), stride=(1, 1), bias=False)
              (exp_bn): BatchNorm2d(1392, eps=1e-05, momentum=0.1, affine=True, track_running_stats=True)
              (exp_af): SiLU()
              (dwise): Conv2d(1392, 1392, kernel_size=(5, 5), stride=(1, 1), padding=(2, 2), groups=1392, bias=False)
              (dwise_bn): BatchNorm2d(1392, eps=1e-05, momentum=0.1, affine=True, track_running_stats=True)
              (dwise_af): SiLU()
              (se): SE(
                (avg_pool): AdaptiveAvgPool2d(output_size=(1, 1))
                (f_ex): Sequential(
                  (0): Conv2d(1392, 58, kernel_size=(1, 1), stride=(1, 1))
                  (1): SiLU()
                  (2): Conv2d(58, 1392, kernel_size=(1, 1), stride=(1, 1))
                  (3): Sigmoid()
                )
              )
              (lin_proj): Conv2d(1392, 232, kernel_size=(1, 1), stride=(1, 1), bias=False)
              (lin_proj_bn): BatchNorm2d(232, eps=1e-05, momentum=0.1, affine=True, track_running_stats=True)
            )
            (b3): MBConv(
              (exp): Conv2d(232, 1392, kernel_size=(1, 1), stride=(1, 1), bias=False)
              (exp_bn): BatchNorm2d(1392, eps=1e-05, momentum=0.1, affine=True, track_running_stats=True)
              (exp_af): SiLU()
              (dwise): Conv2d(1392, 1392, kernel_size=(5, 5), stride=(1, 1), padding=(2, 2), groups=1392, bias=False)
              (dwise_bn): BatchNorm2d(1392, eps=1e-05, momentum=0.1, affine=True, track_running_stats=True)
              (dwise_af): SiLU()
              (se): SE(
                (avg_pool): AdaptiveAvgPool2d(output_size=(1, 1))
                (f_ex): Sequential(
                  (0): Conv2d(1392, 58, kernel_size=(1, 1), stride=(1, 1))
                  (1): SiLU()
                  (2): Conv2d(58, 1392, kernel_size=(1, 1), stride=(1, 1))
                  (3): Sigmoid()
                )
              )
              (lin_proj): Conv2d(1392, 232, kernel_size=(1, 1), stride=(1, 1), bias=False)
              (lin_proj_bn): BatchNorm2d(232, eps=1e-05, momentum=0.1, affine=True, track_running_stats=True)
            )
            (b4): MBConv(
              (exp): Conv2d(232, 1392, kernel_size=(1, 1), stride=(1, 1), bias=False)
              (exp_bn): BatchNorm2d(1392, eps=1e-05, momentum=0.1, affine=True, track_running_stats=True)
              (exp_af): SiLU()
              (dwise): Conv2d(1392, 1392, kernel_size=(5, 5), stride=(1, 1), padding=(2, 2), groups=1392, bias=False)
              (dwise_bn): BatchNorm2d(1392, eps=1e-05, momentum=0.1, affine=True, track_running_stats=True)
              (dwise_af): SiLU()
              (se): SE(
                (avg_pool): AdaptiveAvgPool2d(output_size=(1, 1))
                (f_ex): Sequential(
                  (0): Conv2d(1392, 58, kernel_size=(1, 1), stride=(1, 1))
                  (1): SiLU()
                  (2): Conv2d(58, 1392, kernel_size=(1, 1), stride=(1, 1))
                  (3): Sigmoid()
                )
              )
              (lin_proj): Conv2d(1392, 232, kernel_size=(1, 1), stride=(1, 1), bias=False)
              (lin_proj_bn): BatchNorm2d(232, eps=1e-05, momentum=0.1, affine=True, track_running_stats=True)
            )
            (b5): MBConv(
              (exp): Conv2d(232, 1392, kernel_size=(1, 1), stride=(1, 1), bias=False)
              (exp_bn): BatchNorm2d(1392, eps=1e-05, momentum=0.1, affine=True, track_running_stats=True)
              (exp_af): SiLU()
              (dwise): Conv2d(1392, 1392, kernel_size=(5, 5), stride=(1, 1), padding=(2, 2), groups=1392, bias=False)
              (dwise_bn): BatchNorm2d(1392, eps=1e-05, momentum=0.1, affine=True, track_running_stats=True)
              (dwise_af): SiLU()
              (se): SE(
                (avg_pool): AdaptiveAvgPool2d(output_size=(1, 1))
                (f_ex): Sequential(
                  (0): Conv2d(1392, 58, kernel_size=(1, 1), stride=(1, 1))
                  (1): SiLU()
                  (2): Conv2d(58, 1392, kernel_size=(1, 1), stride=(1, 1))
                  (3): Sigmoid()
                )
              )
              (lin_proj): Conv2d(1392, 232, kernel_size=(1, 1), stride=(1, 1), bias=False)
              (lin_proj_bn): BatchNorm2d(232, eps=1e-05, momentum=0.1, affine=True, track_running_stats=True)
            )
            (b6): MBConv(
              (exp): Conv2d(232, 1392, kernel_size=(1, 1), stride=(1, 1), bias=False)
              (exp_bn): BatchNorm2d(1392, eps=1e-05, momentum=0.1, affine=True, track_running_stats=True)
              (exp_af): SiLU()
              (dwise): Conv2d(1392, 1392, kernel_size=(5, 5), stride=(1, 1), padding=(2, 2), groups=1392, bias=False)
              (dwise_bn): BatchNorm2d(1392, eps=1e-05, momentum=0.1, affine=True, track_running_stats=True)
              (dwise_af): SiLU()
              (se): SE(
                (avg_pool): AdaptiveAvgPool2d(output_size=(1, 1))
                (f_ex): Sequential(
                  (0): Conv2d(1392, 58, kernel_size=(1, 1), stride=(1, 1))
                  (1): SiLU()
                  (2): Conv2d(58, 1392, kernel_size=(1, 1), stride=(1, 1))
                  (3): Sigmoid()
                )
              )
              (lin_proj): Conv2d(1392, 232, kernel_size=(1, 1), stride=(1, 1), bias=False)
              (lin_proj_bn): BatchNorm2d(232, eps=1e-05, momentum=0.1, affine=True, track_running_stats=True)
            )
          )
        )
        (1): Conv2d(232, 152, kernel_size=(1, 1), stride=(1, 1), bias=False)
        (2): BatchNorm2d(152, eps=1e-05, momentum=0.1, affine=True, track_running_stats=True)
      )
    )
  )
  (s7): BranchStage(
    (branches): ModuleList(
      (0): Sequential(
        (0): Sequential(
          (0): Conv2d(304, 264, kernel_size=(1, 1), stride=(1, 1), bias=False)
          (1): BatchNorm2d(264, eps=1e-05, momentum=0.1, affine=True, track_running_stats=True)
          (2): AnyStage(
            (b1): MBConv(
              (exp): Conv2d(264, 1584, kernel_size=(1, 1), stride=(1, 1), bias=False)
              (exp_bn): BatchNorm2d(1584, eps=1e-05, momentum=0.1, affine=True, track_running_stats=True)
              (exp_af): ReLU(inplace=True)
              (dwise): Conv2d(1584, 1584, kernel_size=(3, 3), stride=(1, 1), padding=(1, 1), groups=1584, bias=False)
              (dwise_bn): BatchNorm2d(1584, eps=1e-05, momentum=0.1, affine=True, track_running_stats=True)
              (dwise_af): ReLU(inplace=True)
              (se): SE(
                (avg_pool): AdaptiveAvgPool2d(output_size=(1, 1))
                (f_ex): Sequential(
                  (0): Conv2d(1584, 66, kernel_size=(1, 1), stride=(1, 1))
                  (1): SiLU()
                  (2): Conv2d(66, 1584, kernel_size=(1, 1), stride=(1, 1))
                  (3): Sigmoid()
                )
              )
              (lin_proj): Conv2d(1584, 448, kernel_size=(1, 1), stride=(1, 1), bias=False)
              (lin_proj_bn): BatchNorm2d(448, eps=1e-05, momentum=0.1, affine=True, track_running_stats=True)
            )
            (b2): MBConv(
              (exp): Conv2d(448, 2688, kernel_size=(1, 1), stride=(1, 1), bias=False)
              (exp_bn): BatchNorm2d(2688, eps=1e-05, momentum=0.1, affine=True, track_running_stats=True)
              (exp_af): ReLU(inplace=True)
              (dwise): Conv2d(2688, 2688, kernel_size=(3, 3), stride=(1, 1), padding=(1, 1), groups=2688, bias=False)
              (dwise_bn): BatchNorm2d(2688, eps=1e-05, momentum=0.1, affine=True, track_running_stats=True)
              (dwise_af): ReLU(inplace=True)
              (se): SE(
                (avg_pool): AdaptiveAvgPool2d(output_size=(1, 1))
                (f_ex): Sequential(
                  (0): Conv2d(2688, 112, kernel_size=(1, 1), stride=(1, 1))
                  (1): SiLU()
                  (2): Conv2d(112, 2688, kernel_size=(1, 1), stride=(1, 1))
                  (3): Sigmoid()
                )
              )
              (lin_proj): Conv2d(2688, 448, kernel_size=(1, 1), stride=(1, 1), bias=False)
              (lin_proj_bn): BatchNorm2d(448, eps=1e-05, momentum=0.1, affine=True, track_running_stats=True)
            )
            (b3): MBConv(
              (exp): Conv2d(448, 2688, kernel_size=(1, 1), stride=(1, 1), bias=False)
              (exp_bn): BatchNorm2d(2688, eps=1e-05, momentum=0.1, affine=True, track_running_stats=True)
              (exp_af): ReLU(inplace=True)
              (dwise): Conv2d(2688, 2688, kernel_size=(3, 3), stride=(1, 1), padding=(1, 1), groups=2688, bias=False)
              (dwise_bn): BatchNorm2d(2688, eps=1e-05, momentum=0.1, affine=True, track_running_stats=True)
              (dwise_af): ReLU(inplace=True)
              (se): SE(
                (avg_pool): AdaptiveAvgPool2d(output_size=(1, 1))
                (f_ex): Sequential(
                  (0): Conv2d(2688, 112, kernel_size=(1, 1), stride=(1, 1))
                  (1): SiLU()
                  (2): Conv2d(112, 2688, kernel_size=(1, 1), stride=(1, 1))
                  (3): Sigmoid()
                )
              )
              (lin_proj): Conv2d(2688, 448, kernel_size=(1, 1), stride=(1, 1), bias=False)
              (lin_proj_bn): BatchNorm2d(448, eps=1e-05, momentum=0.1, affine=True, track_running_stats=True)
            )
          )
        )
        (1): Conv2d(448, 256, kernel_size=(1, 1), stride=(1, 1), bias=False)
        (2): BatchNorm2d(256, eps=1e-05, momentum=0.1, affine=True, track_running_stats=True)
      )
      (1): Sequential(
        (0): Sequential(
          (0): Conv2d(304, 232, kernel_size=(1, 1), stride=(1, 1), bias=False)
          (1): BatchNorm2d(232, eps=1e-05, momentum=0.1, affine=True, track_running_stats=True)
          (2): AnyStage(
            (b1): MBConv(
              (exp): Conv2d(232, 1392, kernel_size=(1, 1), stride=(1, 1), bias=False)
              (exp_bn): BatchNorm2d(1392, eps=1e-05, momentum=0.1, affine=True, track_running_stats=True)
              (exp_af): SiLU()
              (dwise): Conv2d(1392, 1392, kernel_size=(3, 3), stride=(1, 1), padding=(1, 1), groups=1392, bias=False)
              (dwise_bn): BatchNorm2d(1392, eps=1e-05, momentum=0.1, affine=True, track_running_stats=True)
              (dwise_af): SiLU()
              (se): SE(
                (avg_pool): AdaptiveAvgPool2d(output_size=(1, 1))
                (f_ex): Sequential(
                  (0): Conv2d(1392, 58, kernel_size=(1, 1), stride=(1, 1))
                  (1): SiLU()
                  (2): Conv2d(58, 1392, kernel_size=(1, 1), stride=(1, 1))
                  (3): Sigmoid()
                )
              )
              (lin_proj): Conv2d(1392, 384, kernel_size=(1, 1), stride=(1, 1), bias=False)
              (lin_proj_bn): BatchNorm2d(384, eps=1e-05, momentum=0.1, affine=True, track_running_stats=True)
            )
            (b2): MBConv(
              (exp): Conv2d(384, 2304, kernel_size=(1, 1), stride=(1, 1), bias=False)
              (exp_bn): BatchNorm2d(2304, eps=1e-05, momentum=0.1, affine=True, track_running_stats=True)
              (exp_af): SiLU()
              (dwise): Conv2d(2304, 2304, kernel_size=(3, 3), stride=(1, 1), padding=(1, 1), groups=2304, bias=False)
              (dwise_bn): BatchNorm2d(2304, eps=1e-05, momentum=0.1, affine=True, track_running_stats=True)
              (dwise_af): SiLU()
              (se): SE(
                (avg_pool): AdaptiveAvgPool2d(output_size=(1, 1))
                (f_ex): Sequential(
                  (0): Conv2d(2304, 96, kernel_size=(1, 1), stride=(1, 1))
                  (1): SiLU()
                  (2): Conv2d(96, 2304, kernel_size=(1, 1), stride=(1, 1))
                  (3): Sigmoid()
                )
              )
              (lin_proj): Conv2d(2304, 384, kernel_size=(1, 1), stride=(1, 1), bias=False)
              (lin_proj_bn): BatchNorm2d(384, eps=1e-05, momentum=0.1, affine=True, track_running_stats=True)
            )
          )
        )
        (1): Conv2d(384, 256, kernel_size=(1, 1), stride=(1, 1), bias=False)
        (2): BatchNorm2d(256, eps=1e-05, momentum=0.1, affine=True, track_running_stats=True)
      )
    )
  )
  (head): AnyHead(
    (conv): Conv2d(512, 2048, kernel_size=(1, 1), stride=(1, 1), bias=False)
    (bn): BatchNorm2d(2048, eps=1e-05, momentum=0.1, affine=True, track_running_stats=True)
    (af): SiLU()
    (avg_pool): AdaptiveAvgPool2d(output_size=(1, 1))
    (fc): Linear(in_features=2048, out_features=1000, bias=True)
  )
)
[trainer.py: 157]: json_stats: {"_type": "complexity", "acts": 131228454, "flops": 10735999342, "params": 31167414}
[trainer.py: 335]: Loaded model weights from: /models/EN-B5-CD/model.pyth
[imagenet.py: 210]: Constructing ImageNet FFCV val...
[imagenet.py: 256]: Data Path: /app/mbm-pycls/pycls/datasets/data/../ffcv/imagenet/val.ffcv
[meters.py: 238]: json_stats: {"_type": "test_iter", "epoch": "1/100", "iter": "10/1042", "mem": 1138, "time_avg": 0.5269, "time_diff": 0.0336, "top1_err": 13.5417, "top5_err": 2.0833}
…
